U-net/weight/backup/decoder_weights_50.pth (torch, 405775 bytes, 7 tensors)

conv0.weight f4 [16, 16, 7, 7]
2.9800442e-05 -0.031153424 0.025746685 0.023144115 -0.0123944245 -0.034922626 -0.019079344 -0.025595183
-0.02399374 -0.025469854 -0.04858021 -0.028788147 -0.012747976 -0.019597337 0.017869767 -0.034793224
-0.014436624 0.00030636654 -0.027221471 -0.041421782 -0.016247924 0.028880717 -0.019702883 -0.03315382
-0.02671877 -0.033039924 -0.0032989823 -0.032992765 -0.015284944 -0.052109458 -0.041448187 0.0031437108
0.008479253 -0.0043062777 -0.04214279 0.020712033 -0.013977391 -0.060562875 -0.0044863517 -0.028308058
-0.024267785 -0.0316314 0.0014207306 0.011165296 -0.04948655 -0.039791703 -0.021877656 -0.03888559
-0.016989721 -0.043317083 -0.010741632 0.005795915 0.028259763 0.060725257 0.029702822 0.056949656
-0.052984677 -0.046709668 0.033054188 -0.012581592 0.023415674 0.050669618 0.003560628 -0.017110227
-0.07211403 0.0074697966 -0.047516562 -0.028703988 0.0035507262 0.0548769 -0.044349175 -0.06989679
-0.010205057 -0.007844715 0.0014513358 -0.0042151576 0.019069197 -0.033548556 -0.018082105 0.0316729
0.05199934 0.03026013 -0.022053557 0.052112535 -0.08168345 -0.1305241 -0.037400424 -0.034979552
-0.041393712 -0.050071295 -0.06341076 0.12483071 0.047474544 0.049842663 0.11904119 0.10155664
0.08230254 0.10786762 -0.014466491 0.015237902 0.012994166 -0.041874792 -0.029566012 -0.0022017402
-0.05400244 -0.008222627 0.01788148 -0.02431491 0.013163658 -0.0035692507 -0.05892817 -0.034521896
-0.03534595 -0.028632838 -0.019677978 -0.031454418 0.030104697 -0.033161387 -0.00024493394 0.026235165
-0.0028338945 -0.009566371 0.004374542 -0.005559635 -0.004891662 -0.053106897 0.014629837 -0.026670018
-0.03666303 0.011175508 0.026941154 -0.011996628 -0.0032226297 -0.013914914 -0.016044822 -0.0057373825
-0.03592854 0.02888305 0.008232664 -0.011565572 -0.027015092 -0.018747037 -0.00022980086 -0.031944223
-0.019094115 0.0071966755 -0.026886243 0.02513401 0.08672942 -0.0041797822 0.025616057 0.010267699
-0.002754486 -0.05153502 -0.06352011 -0.034932557 -0.046118364 -0.0142593775 -0.03704817 -0.110068895
-0.09639111 -0.007816539 0.037824977 0.02100516 -0.016174346 0.019921118 0.003991071 -0.035890628
-0.01109253 -0.013385623 0.008953619 -0.0050136494 -0.0033206018 -0.049123883 -0.10124399 0.076162644
0.060706284 0.066364944 0.06985856 0.044243626 -0.026741715 -0.04155499 -0.028838066 -0.018703014
-0.02749533 -0.03785274 -0.017056443 -0.07063493 -0.062055018 0.06745012 0.08492226 0.10224434
0.06948305 -0.0047416682 0.034890406 0.06356409 0.026121166 0.05770327 0.074116774 0.014009487
-0.025106056 -0.041464906 -0.007564816 0.023701722 0.06252547 -0.007464675 -0.043869592 -0.026018212
-0.034669984 -0.06947578 0.0051190383 0.046685614 -0.015201978 -0.0023693172 -0.015171717 -0.037290726
-0.049529724 0.11902033 0.14114553 0.07159128 0.077692136 0.02972852 0.03148479 -0.0090562
-0.10180905 -0.106918 -0.09988008 -0.13777411 -0.15803961 -0.18399528 -0.19442299 -0.028785948
0.016644534 0.038831145 0.032609317 0.038021103 0.029343352 0.048668437 -0.11321237 -0.13798839
-0.13307501 -0.07293966 -0.058562666 -0.13279328 0.010841683 0.034394145 0.02137935 -0.017428814
0.035456832 -0.01384731 -0.043884017 0.010545548 -0.026929693 -0.019754656 -0.10172051 -0.017557422
00000000: f6fb f937 7735 ffbc b6ea d23c ba98 bd3c
00000010: fc11 4bbc 070b 0fbd 494c 9cbc fdac d1bc
00000020: 858e c4bc 28a6 d0bc 0bfc 46bd 1fd5 ebbc
00000030: e3dc 50bc 988a a0bc 9e63 923c 5783 0ebd
00000040: 9787 6cbc d29f a039 90ff debc e3a9 29bd
00000050: 5e1a 85bc 4197 ec3c f167 a1bc 4dcc 07bd
00000060: 52e1 dabc df54 07bd bd33 58bb 6c23 07bd
00000070: b46d 7abc ba70 55bd 93c5 29bd b706 4e3b
00000080: 91ec 0a3c ad1b 8dbb eb9d 2cbd 48ac a93c
00000090: 6d01 65bc c710 78bd 3f02 93bb 4de6 e7bc
000000a0: 3ccd c6bc ed8f 01bd cf37 ba3a a5ee 363c
000000b0: 69b2 4abd a0fc 22bd c538 b3bc 7f46 1fbd
000000c0: 072e 8bbc 416d 31bd acfd 2fbc a9eb bd3b
000000d0: 0581 e73c 0cbb 783d 5553 f33c 0b44 693d
000000e0: 7606 59bd a352 3fbd d463 073d 0623 4ebc
000000f0: 3ad2 bf3c f28a 4f3d 6d59 693b bf2a 8cbc
00000100: 85b0 93bd 32c5 f43b baa0 42bd a024 ebbc
00000110: 4db3 683b 9ac6 603d 7ba7 35bd 0c26 8fbd
00000120: 1d33 27bc 1f87 00bc c03a be3a 4e1f 8abb
00000130: 0137 9c3c 366a 09bd ec20 94bc 71bb 013d
00000140: 43fd 543d 18e4 f73c a9a9 b4bc f473 553d
00000150: a749 a7bd 1ca8 05be 3031 19bd b846 0fbd
00000160: 748c 29bd 8f17 4dbd 80dd 81bd 3ea7 ff3d
00000170: ab74 423d d227 4c3d decb f33d edfc cf3d
00000180: 3c8e a83d b3e9 dc3d dc04 6dbc 65a8 793c
00000190: 7ce5 543c e784 2bbd 6c34 f2bc 124b 10bb
000001a0: aa31 5dbd 33b8 06bc 2e7c 923c 1030 c7bc
000001b0: 62ac 573c 17ea 69bb aa5e 71bd d566 0dbd
000001c0: eac6 10bd 6a8f eabc b633 a1bc 59d6 00bd
000001d0: 209e f63c 3cd4 07bd 7a6a 80b9 21eb d63c
000001e0: dcb8 39bb 45bc 1cbc 5158 8f3b 992d b6bb
000001f0: 3c4a a0bb 9e86 59bd fcb1 6f3c 157b dabc
00000200: f92b 16bd 7a19 373c b2b3 dc3c 818d 44bc
00000210: c132 53bb 61fb 63bc 6e70 83bc a700 bcbb
00000220: ce29 13bd 259c ec3c 4ce2 063c 867d 3dbc
00000230: c14e ddbc 6393 99bc b3f6 70b9 f2d7 02bd
00000240: 436b 9cbc 17d2 eb3b 8a40 dcbc d7e5 cd3c
00000250: 329f b13d 8ef6 88bb c4d8 d13c da39 283c
00000260: 9b84 34bb 6316 53bd d516 82bd 7115 0fbd
00000270: 9ce6 3cbd 2aa0 69bc d2bf 17bd cd6b e1bd
00000280: b468 c5bd f110 00bc 5dee 1a3d 0313 ac3c
00000290: 1080 84bc 9d31 a33c 88c7 823b 0d02 13bd
000002a0: 71bd 35bc 5f4f 5bbc 33b2 123c 8a49 a4bb
000002b0: 749e 59bb 2036 49bd 0259 cfbd 29fb 9b3d
000002c0: 27a7 783d 58ea 873d 0112 8f3d ce38 353d
000002d0: 7111 dbbc 9135 2abd cf3d ecbc 1037 99bc
000002e0: e33d e1bc 7a0b 1bbd f4b9 8bbc 0ca9 90bd
000002f0: 672d 7ebd 4a23 8a3d b9eb ad3d 7b65 d13d
00000300: 214d 8e3d ff5f 9bbb 3ee9 0e3d e42d 823d
00000310: 0efc d53c 445a 6c3d 89ca 973d 0c88 653c
00000320: 37ab cdbc 1bd7 29bd 47e2 f7bb 1d2a c23c
00000330: 5b0d 803d 3c9a f4bb 9ab0 33bd 2524 d5bc
00000340: 1d02 0ebd 5149 8ebd 9bbd a73b 6a39 3f3d
00000350: b811 79bc 8c46 1bbb cb92 78bc 29be 18bd
00000360: aedf 4abd eec0 f33d 7488 103e 739e 923d
00000370: 0e1d 9f3d 3a89 f33c 32f6 003d 7560 14bc
00000380: 4381 d0bd d3f7 dabd ed8d ccbd a814 0dbe
00000390: 23d5 21be 4269 3cbe d216 47be 82d0 ebbc
000003a0: 1e5a 883c 680d 1f3d 5991 053d 04bc 1b3d
000003b0: 7861 f03c 8e58 473d e3db e7bd d44c 0dbe
000003c0: d144 08be 6361 95bd 68df 6fbd f6fa 07be
000003d0: 50a1 313c e0e0 0c3d bf23 af3c dfc6 8ebc
000003e0: 2f3b 113d d4df 62bc babf 33bd 3cc7 2c3c
000003f0: a99b dcbc 84d4 a1bc d852 d0bd 95d4 8fbc

conv0.bias f4 [16]
0.06980634 -0.016026257 -0.084845155 0.11960931 0.11051158 -0.0734998 0.35358074 -0.0153414
0.18671285 0.08461828 0.008905534 0.16812755 0.009844437 0.20938095 0.050496366 -0.0031462337
00000000: a0f6 8e3d 7f49 83bc 4cc3 adbd baf5 f43d
00000010: e553 e23d 1087 96bd 8908 b53e 7f5a 7bbc
00000020: a731 3f3e 594c ad3d 84e8 113c a129 2c3e
00000030: 904a 213c f667 563e 47d5 4e3d 0b31 4ebb

conv1.weight f4 [32, 32, 7, 7]
-0.014645162 -0.017760625 -0.02466001 -0.004927948 -0.047709484 -0.04915995 -0.032616187 -0.04780607
-0.037741754 -0.03281396 -0.016253255 -0.031931005 -0.03789353 -0.0591493 -0.013458205 -0.008539678
-0.025915356 0.00046164542 -0.01846089 -0.035555784 -0.056554567 -0.018855901 -0.010044187 -0.04054678
-0.008478296 -0.02078397 -0.056287613 -0.03790733 -0.038310487 -0.011399642 -0.014424599 -0.0053033787
-0.0100298785 -0.06880401 -0.020102378 -0.017438138 -0.044696316 -0.031424984 -0.03170179 -0.043306835
-0.064755306 -0.0480257 -0.002223408 -0.017898435 -0.013478237 -0.047245547 -0.042273346 -0.047457058
-0.027249448 -0.07869957 -0.06893948 -0.07764716 -0.08727176 -0.11269191 -0.103411555 -0.005540407
-0.05428715 -0.06403956 -0.05071561 -0.06722673 -0.10661666 -0.08292619 -0.0048017506 -0.07278914
-0.039843056 -0.038950995 -0.04042294 -0.0824673 -0.06334613 0.023042144 -0.08832409 -0.030191628
-0.032298498 -0.05148748 -0.05330331 -0.040640134 0.030006321 -0.088769846 -0.016481465 -0.0142576
0.027512906 0.036845382 -0.00052608084 0.023611957 -0.08174512 -0.014961842 -0.0029465384 0.054131087
0.03337253 0.063737184 0.062654026 -0.07720446 -0.044216868 -0.00059583114 0.04638073 0.053776518
0.054668043 0.013955927 0.03598701 0.011893156 0.008547809 -0.017614204 -0.011145843 -0.024610423
-0.017746598 0.012664564 0.0028400342 -0.01792832 -0.026817521 -0.0019502251 -0.019363094 -0.011678843
0.010578948 0.00677066 -0.008513008 -0.008581126 -0.0059483964 -0.0074704485 0.008880429 0.05001659
0.016798396 -0.020965068 -0.032126572 -0.027405642 0.00018593515 0.010066995 0.008657468 -0.017055893
-0.039616253 -0.014782833 0.009385394 0.006969656 -0.024501542 0.047618605 0.008638266 -0.016524032
-0.010820084 -0.0109738475 -0.013841509 0.013588427 0.04771551 0.0048199156 -0.03165205 0.00034214012
0.012085083 -0.008118693 0.010464319 0.0029539487 0.014200871 -0.0063327523 -0.026154421 -0.008412017
-0.014029794 -0.07571995 0.01698014 0.012284856 -0.0033771442 -0.013891955 -0.040594276 -0.045119863
-0.07162031 -0.008186606 0.04316411 0.02308151 -0.03377642 -0.017381359 -0.030682234 -0.07484721
0.008480561 0.035575304 0.007890432 -0.008862024 0.0034451375 -0.061981685 -0.07641012 0.009487888
0.003707422 -0.018205557 -0.022752663 -0.04124206 -0.06753623 -0.050187044 -0.0004128085 0.0016521469
0.00081618375 -0.043194246 -0.019247718 -0.046222 -0.08241896 -0.034094915 -0.03701471 -0.039799504
-0.02569472 -0.071647204 -0.084508605 -0.0726374 -0.22065035 -0.24147032 -0.26176152 -0.22729723
-0.22773272 -0.24548127 -0.24535958 -0.13341723 -0.09943285 -0.12237904 -0.14515519 -0.103817396
-0.076656625 -0.021529187 -0.043785002 -0.052088533 -0.06860856 -0.08038234 -0.064145625 0.01571642
0.046307936 0.12968911 0.099093854 0.05025851 0.053077925 0.08164962 0.12141941 0.109391324
0.1043322 0.036387842 0.04700369 0.008057412 0.030488279 0.09157518 0.09657115 0.1803921
0.1607675 0.13557556 0.08076229 0.08456002 0.11916408 0.119454205 0.20460692 0.19871122
0.12458676 0.106695026 0.09500682 0.10650768 0.12509988 -0.04596803 -0.035093408 -0.02350584
-0.015135772 -0.05063761 -0.017169597 -0.03586043 -0.009524125 -0.05351449 -0.022786435 -0.018350648
00000000: 43f2 6fbc bb7e 91bc ca03 cabc a07a a1bb
00000010: 056b 43bd f25b 49bd 8d98 05bd 4cd0 43bd
00000020: 1997 1abd ee67 06bd 8c25 85bc 16ca 02bd
00000030: 3f36 1bbd 8946 72bd ce7f 5cbc 01ea 0bbc
00000040: 714c d4bc 0009 f239 4b3b 97bc f1a2 11bd
00000050: c3a5 67bd b177 9abc 6090 24bc 6114 26bd
00000060: 8de8 0abc 2543 aabc d78d 66bd b744 1bbd
00000070: 75eb 1cbd 90c5 3abc 2755 6cbc f7c7 adbb
00000080: 5c54 24bc 1ee9 8cbd bead a4bc 6dda 8ebc
00000090: 7c13 37bd 7cb7 00bd bcd9 01bd 8262 31bd
000000a0: 6e9e 84bd 99b6 44bd 99b6 11bb bd9f 92bc
000000b0: d3d3 5cbc 8c84 41bd d126 2dbd 5562 42bd
000000c0: 3c3a dfbc 3d2d a1bd 2430 8dbd 7905 9fbd
000000d0: 89bb b2bd 04cb e6bd 70c9 d3bd 4d8c b5bb
000000e0: 345c 5ebd 2c27 83bd 2cbb 4fbd 2bae 89bd
000000f0: d659 dabd 35d5 a9bd 0158 9dbb 7912 95bd
00000100: 7932 23bd 148b 1fbd 8692 25bd 9ee4 a8bd
00000110: 9ebb 81bd e1c2 bc3c 43e3 b4bd 6f54 f7bc
00000120: 6e4b 04bd 89e4 52bd 9254 5abd 4576 26bd
00000130: d1cf f53c f7cc b5bd 2304 87bc b598 69bc
00000140: bf62 e13c 2feb 163d b0e8 09ba dd6d c13c
00000150: fc69 a7bd 8422 75bc b61a 41bb 8fb8 5d3d
00000160: a2b1 083d a488 823d c150 803d 5f1d 9ebd
00000170: bf1c 35bd 8d31 1cba b8f9 3d3d c444 5c3d
00000180: 99eb 5f3d 67a7 643c 1d67 133d 83db 423c
00000190: 1c0c 0c3c aa4b 90bc 0e9d 36bc cc9b c9bc
000001a0: 5061 91bc 087f 4f3c de1f 3a3b 6ade 92bc
000001b0: 6bb0 dbbc b29e ffba 5a9f 9ebc 9e58 3fbc
000001c0: 5353 2d3c 6adc dd3b 257a 0bbc da97 0cbc
000001d0: c4ea c2bb aaca f4bb 387f 113c 32de 4c3d
000001e0: ca9c 893c efbe abbc 2797 03bd cc81 e0bc
000001f0: 96f7 4239 0af0 243c 0dd8 0d3c cdb8 8bbc
00000200: a744 22bd b233 72bc 32c5 193c b661 e43b
00000210: 75b7 c8bc ba0b 433d 8387 0d3c 685d 87bc
00000220: b946 31bc a7cb 33bc 7fc7 62bc fea1 5e3c
00000230: 5771 433d 62f0 9d3b 94a5 01bd 4561 b339
00000240: 8300 463c 4404 05bc 8972 2b3c 0997 413b
00000250: c5aa 683c fa82 cfbb cc41 d6bc 8ed2 09bc
00000260: 39dd 65bc 1013 9bbd ef19 8b3c 6c46 493c
00000270: 1453 5dbb 159b 63bc 2f46 26bd 9bcf 38bd
00000280: abad 92bd 1d21 06bc dacc 303d 6f15 bd3c
00000290: 2559 0abd 5a63 8ebc 4f59 fbbc 7e49 99bd
000002a0: 0df2 0a3c 69b7 113d df46 013c 0632 11bc
000002b0: d1c7 613b 82e0 7dbd e97c 9cbd 1673 1b3c
000002c0: 38f8 723b d223 95bc cb63 babc 6fed 28bd
000002d0: 6f50 8abd ee90 4dbd 386e d8b9 da8c d83a
000002e0: 2af5 553a 73ec 30bd 64ad 9dbc 4853 3dbd
000002f0: 46cb a8bd 1ca7 0bbd bd9c 17bd ce04 23bd
00000300: bc7d d2bc c5bb 92bd d912 adbd ebc2 94bd
00000310: 2af2 61be ff43 77be 9b05 86be 9bc0 68be
00000320: c432 69be 715f 7bbe 8b3f 7bbe 879e 08be
00000330: 73a3 cbbd dda1 fabd 90a3 14be 379e d4bd
00000340: 26fe 9cbd fa5d b0bc e757 33bd c95a 55bd
00000350: a582 8cbd 7f9f a4bd c85e 83bd b9bf 803c
00000360: 64ad 3d3d 39cd 043e b8f1 ca3d dedb 4d3d
00000370: 3d68 593d ea37 a73d bdaa f83d 8f08 e03d
00000380: 1fac d53d 6b0b 153d f186 403d 3c03 043c
00000390: 8ec2 f93c c58b bb3d 18c7 c53d b5b8 383e
000003a0: 3ca0 243e 52d4 0a3e b366 a53d ce2d ad3d
000003b0: 4c0c f43d 68a4 f43d 7a84 513e f47a 4b3e
000003c0: 5827 ff3d ec82 da3d f092 c23d b320 da3d
000003d0: 2f1a 003e f948 3cbd 1bbe 0fbd 528f c0bc
000003e0: 07fc 77bc 6269 4fbd 41a7 8cbc 63e2 12bd
000003f0: 130b 1cbc 0332 5bbd 9eaa babc 1954 96bc

conv1.bias f4 [32]
0.24921119 0.20823702 0.10280974 0.13949299 0.09263386 -0.0071206894 0.018871801 0.014926181
0.22045252 0.14133635 0.12462369 0.17127517 0.028132252 0.34319282 0.1381302 -0.025598727
-0.024601554 -0.0144814905 -0.05426532 0.24144872 0.00022031256 0.101159975 0.010888649 0.017416945
0.0014065694 0.11377717 0.181351 -0.05410117 -0.028327327 -0.006226508 0.09775907 0.19557844
00000000: 3831 7f3e 163c 553e ea8d d23d 40d7 0e3e
00000010: d2b6 bd3d ac54 e9bb 0999 9a3c f18c 743c
00000020: 4ebe 613e 7aba 103e b53a ff3d c262 2f3e
00000030: 9c75 e63c f8b6 af3e 0172 0d3e 6cb4 d1bc
00000040: 3389 c9bc c643 6dbc 5045 5ebd 553e 773e
00000050: b403 6739 f62c cf3d 4e66 323c fbad 8e3c
00000060: a35c b83a 0104 e93d 14b4 393e 3099 5dbd
00000070: b60e e8bc bc07 ccbb e835 c83d b745 483e

conv2.weight f4 [64, 64, 3, 3]
0.03310652 0.0070215883 0.024698945 0.08535418 0.04383946 0.03365257 0.057036027 0.07985743
0.02234168 0.017538814 -0.044050585 -0.047409352 -0.045651224 -0.0076188995 0.0018827311 -0.014637043
-0.005456547 0.019956604 -0.08974901 -0.09179702 -0.018218214 -0.08713315 -0.09718037 -0.01723294
-0.052798443 -0.02610604 0.0057991534 -0.016907208 0.032002088 -0.018289514 -0.009726152 0.014213435
-0.027118376 -0.038455248 -0.029352821 -0.045555867 0.004527676 -0.07619022 -0.08906369 0.018236546
-0.04911781 -0.14006364 0.029116761 -0.08509834 -0.07290842 -0.057385717 -0.06763964 -0.062000487
-0.015331679 -0.07616646 -0.0007884132 -0.024165984 -0.020185255 -0.0730444 -0.04723692 0.0030861665
-0.064643025 0.0027870806 -0.00021579405 -0.026437594 -0.02615989 -0.033574454 -0.02252179 0.016660195
0.025350826 0.01123966 -0.014179918 0.01504955 0.046958033 -0.012310615 0.06351061 0.04417839
0.020207692 0.017526314 -0.025382062 -0.015464467 -0.027731624 -0.017421896 0.020167857 -0.046341334
-0.011046411 -0.025909454 -0.023906268 -0.055054013 -0.0070064547 -0.026734002 -0.078706004 -0.07432248
-0.07489286 -0.02861402 0.014184153 -0.027257329 -0.0055158446 -0.020240342 0.014160385 -8.958063e-05
-0.04652114 0.011325788 -0.037099898 -0.030030752 -0.02947429 -0.016104277 -0.02638545 -0.045054007
-0.025363596 -0.026432153 -0.031141626 -0.037020817 -0.032863133 0.03358758 0.10131796 -0.038595762
0.0924722 0.074142896 0.018273477 0.113321535 0.12201255 -0.004462022 -0.0015254621 0.052408602
0.007861744 0.07111577 0.03766113 -0.042159144 0.078072004 0.071348846 -0.030181231 0.052915826
-0.010417048 -0.0057603223 -0.0071466956 0.037520077 -0.0019091495 0.044534966 0.023064338 -0.016242368
-0.028936008 0.020766199 -0.002806537 0.026057059 0.02594141 -0.006097704 0.030133141 0.0140547855
-0.014045085 0.01685638 0.0002373712 0.005094769 0.022137826 0.0037492604 0.006008669 -0.04540338
0.009407276 -0.039931297 0.07442604 0.01560612 0.015866125 0.06407687 0.013525213 -0.030194608
0.053449307 0.048586372 -0.010984128 -0.055259544 0.01621863 -0.017626083 0.006736819 0.035021707
-0.0649606 -0.030771948 -0.015852934 0.032123588 -0.028308336 0.03345517 0.018627573 -0.0070177643
0.027192064 -0.018029137 -0.013513279 -0.0014636219 0.18040848 0.17922243 0.0744907 0.14312635
0.18908203 0.031831868 0.13317649 0.14505622 0.06988398 0.0860827 0.330114 0.19771786
0.15928626 0.37027752 0.26353964 0.07895079 0.31158862 0.21041721 0.0008808209 -0.010732132
-0.04399225 -0.01356991 -0.00022842697 -0.04170863 0.0018431196 0.0059522656 -0.02272355 0.010345209
0.04443749 -0.05406 0.0044219857 0.062492695 -0.091060236 0.0005100957 0.044654094 -0.12434125
0.00042558112 0.010720094 -0.024571197 0.005326345 0.0105081955 -0.00016814336 -0.0035030507 -0.03472627
0.016223943 -0.007631774 -0.020439591 -0.003484996 0.032838244 0.024302602 0.055166807 0.07157351
0.06812147 0.01853118 0.045768604 0.1471349 0.2303148 0.11961866 0.19081616 0.3038467
0.16752449 0.29367605 0.3337156 0.028379658 0.014638142 -0.042216178 -0.0085953055 -0.04036642
-0.013637331 0.03308781 -0.04705188 -0.036935687 -0.0029355453 -0.02768991 0.03394518 0.020640831
00000000: b49a 073d 5a15 e63b 7155 ca3c 2cce ae3d
00000010: 0191 333d 47d7 093d 9c9e 693d 4b8c a33d
00000020: e605 b73c 8fad 8f3c 636e 34bd 4f30 42bd
00000030: c7fc 3abd f6a7 f9bb f9c5 f63a 35d0 6fbc
00000040: d5cc b2bb 087c a33c 54ce b7bd 1300 bcbd
00000050: 5d3e 95bc dd72 b2bd 8006 c7bd 182c 8dbc
00000060: 2e43 58bd 56dc d5bc d306 be3b fc80 8abc
00000070: 9f14 033d e4d3 95bc 705a 1fbc 78df 683c
00000080: 5b27 debc 4083 1dbd 5475 f0bc ca98 3abd
00000090: e65c 943b 9e09 9cbd 0667 b6bd cf64 953c
000000a0: c22f 49bd d86c 0fbe 4686 ee3c 0a48 aebd
000000b0: 0251 95bd 490d 6bbd a786 8abd 39f4 7dbd
000000c0: b931 7bbc 29fd 9bbd 84ad 4eba bef7 c5bc
000000d0: 8c5b a5bc 4d98 95bd 807b 41bd 4841 4a3b
000000e0: 9063 84bd 74a7 363b c646 62b9 a793 d8bc
000000f0: 444d d6bc 5e85 09bd 9e7f b8bc f67a 883c
00000100: 89ac cf3c 8d26 383c e352 68bc 6392 763c
00000110: 1157 403d 76b2 49bc da11 823d 66f4 343d
00000120: 9a8a a53c 5893 8f3c 0bee cfbc ad5e 7dbc
00000130: 6e2d e3bc 5db8 8ebc 1037 a53c 69d0 3dbd
00000140: 01fc 34bc 1040 d4bc 14d7 c3bc 5180 61bd
00000150: 6796 e5bb 4401 dbbc 9d30 a1bd 6236 98bd
00000160: 6e61 99bd f367 eabc a664 683c c34a dfbc
00000170: 42be b4bb 13cf a5bc f600 683c 3cdd bbb8
00000180: f38c 3ebd cc8f 393c 10f6 17bd 0d03 f6bc
00000190: 1174 f1bc 1eed 83bc 4d26 d8bc 8d8a 38bd
000001a0: 51c7 cfbc 3e88 d8bc b91c ffbc 24a3 17bd
000001b0: 7e9b 06bd 2193 093d ca7f cf3d 9716 1ebd
000001c0: 1162 bd3d 3bd8 973d 42b2 953c 1f15 e83d
000001d0: b7e1 f93d 2736 92bb 04f2 c7ba 67aa 563d
000001e0: 8bce 003c 25a5 913d 8f42 1a3d 11af 2cbd
000001f0: 37e4 9f3d 581f 923d a13e f7bc 44be 583d
00000200: 44ac 2abc 16c1 bcbb d42e eabb a7ae 193d
00000210: 6d3c faba 4c6a 363d 6cf1 bc3c b70e 85bc
00000220: 350b edbc e01d aa3c e1ed 37bb 9d75 d53c
00000230: 1483 d43c 40cf c7bb c7d9 f63c 0b46 663c
00000240: 5b1d 66bc 6416 8a3c d9e6 7839 05f2 a63b
00000250: 635a b53c 27b6 753b 5ee4 c43b e5f8 39bd
00000260: fa20 1a3c 008f 23bd ae6c 983d d0b0 7f3c
00000270: adf9 813c bc3a 833d db98 5d3c af5a f7bc
00000280: a9ed 5a3d 8102 473d c6f6 33bc d557 62bd
00000290: efdc 843c 9364 90bc 89c0 dc3b ec72 0f3d
000002a0: 100a 85bd 7415 fcbc 03de 81bc 0694 033d
000002b0: e2e6 e7bc 4a08 093d da98 983c 46f5 e5bb
000002c0: e4c1 de3c d7b1 93bc cd66 5dbc 00d7 bfba
000002d0: 00bd 383e 1686 373e 958e 983d b78f 123e
000002e0: b89e 413e 2262 023d 6b5f 083e 9e89 143e
000002f0: 551f 8f3d 204c b03d b404 a93e 8d76 4a3e
00000300: f01b 233e 0495 bd3e abee 863e f4b0 a13d
00000310: 8b88 9f3e 9c77 573e e4e6 663a d3d5 2fbc
00000320: 3831 34bd 5454 5ebc e685 6fb9 abd6 2abd
00000330: d594 f13a 390b c33b bd26 babc f47e 293c
00000340: 1604 363d 056e 5dbd 4ee6 903b 57f8 7f3d
00000350: ca7d babd f1b7 053a 36e7 363d a0a6 febd
00000360: 8820 df39 55a3 2f3c 8949 c9bc 9f88 ae3b
00000370: 912a 2c3c a44f 30b9 7093 65bb 223d 0ebd
00000380: 13e8 843c f613 fabb ee70 a7bc 8864 64bb
00000390: 6581 063d 4016 c73c 97f6 613d 2295 923d
000003a0: 4583 8b3d b4ce 973c dc77 3b3d 88aa 163e
000003b0: a5d7 6b3e a1fa f43d 5065 433e cb91 9b3e
000003c0: 8a8b 2b3e b55c 963e c5dc aa3e 757c e83c
000003d0: d1d4 6f3c dfea 2cbd 53d3 0cbc 4257 25bd
000003e0: 1d6f 5fbc 1587 073d 79b9 40bd e049 17bd
000003f0: 4762 40bb f3d5 e2bc 1a0a 0b3d f616 a93c

conv2.bias f4 [64]
0.008466551 -0.018273719 0.07580481 -0.0043698736 -0.00078588055 -0.06268582 -0.015613234 0.18955018
-0.023485301 0.0011846742 -0.048831414 -0.008051691 0.15365542 0.13665545 0.16276583 -0.058002505
-0.011842241 0.14164053 0.15904237 -0.01988463 -0.08439783 0.10852652 -0.0039120675 0.10196881
0.0023191078 0.021959877 0.17890102 -0.051033374 -0.02866927 0.18522954 0.17018025 0.08901615
0.11168222 -0.0020470484 -0.105847344 -0.057565678 0.0963327 -0.011139869 -0.035625108 0.013187637
0.012021626 0.15532427 0.14077644 0.14791653 -0.035603262 -0.03422831 0.12359927 -0.018757109
-0.02752061 -0.023316195 0.16730624 0.08116888 -0.022990836 0.18566981 -0.022560092 0.14240085
-0.05406406 0.13597152 -0.042174105 0.13474187 0.18228129 0.15753494 0.005740552 0.012862922
00000000: 4ab7 0a3c c4b2 95bc 8d3f 9b3d 2831 8fbb
00000010: 8d03 4eba 6c61 80bd a6ce 7fbc 7119 423e
00000020: 3f64 c0bc 1247 9b3a 7303 48bd 3deb 03bc
00000030: d957 1d3e 68ef 0b3e 16ac 263e 0994 6dbd
00000040: f505 42bc 370a 113e 01dc 223e 17e5 a2bc
00000050: c5d8 acbd 2743 de3d cd30 80bb 06d5 d03d
00000060: 2cfc 173b 33e5 b33c d431 373e 5f08 51bd
00000070: d1db eabc d0ac 3d3e bb43 2e3e 194e b63d
00000080: a6b9 e43d c627 06bb 7ec6 d8bd fdc9 6bbd
00000090: 144a c53d ff83 36bc a2eb 11bd f510 583c
000000a0: 5bf6 443c 530d 1f3e b327 103e 6e77 173e
000000b0: bad4 11bd fc32 0cbd 9d21 fd3d 82a8 99bc
000000c0: e772 e1bc 9b01 bfbc 5452 2b3e df3b a63d
000000d0: 4757 bcbc 3a20 3e3e f1cf b8bc 87d1 113e
000000e0: 4772 5dbd 1e3c 0b3e c1be 2cbd c6f9 093e
000000f0: f2a7 3a3e d750 213e 3e1b bc3b 01bf 523c

conv3.weight f4 [128, 1, 3, 3]
-0.1619872 -0.22757854 0.12781046 -0.02589104 0.09596903 0.37372553 0.13405478 0.08948873
0.03934922 -0.29652995 -0.25863808 0.16453917 -0.04526061 -0.27761525 0.10734805 -0.15207088
0.22626938 -0.21814422 -0.13454892 0.12283915 -0.33062175 0.2605926 -0.29561013 -0.052026484
0.14088383 0.2939533 0.03048352 -0.11672616 -0.002431095 0.1906543 0.2944604 -0.19833297
-0.20217702 0.13371 -0.13918829 -0.26355976 0.1114027 -0.19010901 0.105009414 0.0602912
-0.21499193 -0.32933694 0.20003344 -0.19303931 -0.17516513 -0.031407855 0.08828949 -0.16230996
-0.008817166 0.15893996 -0.32973292 -0.009095573 0.2864409 -0.22308916 0.17217708 -0.18625136
-0.054921452 -0.20851664 -0.26126707 -0.14620934 0.012607419 0.22552559 -0.0049820114 0.10443845
0.16464823 -0.031716485 -0.3215488 0.3115939 -0.17722388 0.15367705 0.061365344 0.12660411
-0.12704214 -0.14075837 0.027969563 -0.09913756 -0.20384473 0.33852968 -0.2257287 -0.2178099
-0.2520202 0.16891082 -0.2264717 -0.09862422 -0.19589855 0.21470605 -0.022727579 0.03771174
-0.2831651 -0.030689184 -0.26694906 0.053442147 -0.1791451 0.23525847 -0.18722442 -0.07481765
-0.28062454 0.21368523 -0.17562059 -0.12838669 0.3129885 0.07397812 0.20318194 -0.1641576
-0.08309041 -0.23355177 -0.2937337 0.29983333 0.05232278 0.21770458 -0.28508115 0.017804896
-0.12527297 0.17352979 -0.2613725 0.19133437 0.30197838 0.23051184 -0.23713318 0.19522585
0.0468273 0.29298055 0.21760906 0.118716374 0.033550188 0.20140046 0.29631785 0.22579809
0.21727724 -0.19748926 -0.20106788 0.018731516 0.21954462 0.14028303 -0.0891013 0.010152767
-0.18210334 -0.2857317 0.20973952 -0.08501818 -0.04053696 -0.3026164 -0.23706506 -0.1038663
0.16315815 -0.0102195665 -0.037027463 0.13610935 -0.14347026 0.24320978 -0.1901536 -0.007987228
-0.26172316 0.26323363 0.10447113 0.063077025 0.090244 0.17944567 0.24162742 -0.26165953
0.13867947 0.0382794 0.2684958 -0.30880684 -0.3236815 0.30127335 0.28911415 -0.10734734
-0.24095818 0.23392832 0.23347636 0.17167713 0.076202735 0.0025964314 -0.042311165 -0.29084846
-0.06399017 0.19443274 -0.22189322 -0.0380012 0.26310062 -0.06910849 0.15235002 0.038385034
-0.1351929 -0.00570118 -0.38226473 -0.15652443 0.30789593 -0.17581838 -0.14376931 0.23107845
0.21817474 0.22970615 -0.1581872 -0.27902845 -0.08112681 0.17727226 -0.17686781 -0.2637631
-0.109198205 0.009245181 -0.003918189 0.13176946 0.17577146 -0.057571374 0.23194744 -0.050636426
0.3611184 -0.2807655 0.17712466 0.45640305 0.1261625 0.18186872 0.075942755 0.037511967
-0.1407908 0.023070779 -0.27369523 -0.30849284 -0.093599856 -0.17494106 0.34579656 -0.25503948
0.30589023 -0.055963535 0.18083626 -0.25846604 -0.15535294 0.35733518 0.25979808 -0.16221467
0.015652854 -0.0067564356 -0.3524929 0.244011 -0.32431045 -0.18821841 0.12421089 0.2827654
0.35735887 -0.017212048 -0.11824469 0.29306263 -0.21831468 -0.0077100415 0.1113727 0.27236623
-0.26663366 -0.084858604 -0.03721173 -0.062791355 0.09669981 0.15498623 0.16295385 -0.16173282
00000000: f9df 25be 590a 69be bfe0 023e 7219 d4bc
00000010: 698b c43d f458 bf3e a845 093e de45 b73d
00000020: a62c 213d c6d2 97be 366c 84be f57c 283e
00000030: 3063 39bd 9623 8ebe 4bd9 db3d 78b8 1bbe
00000040: 29b3 673e 3361 5fbe 31c7 09be 1893 fb3d
00000050: 4147 a9be 656c 853e 365a 97be b919 55bd
00000060: da43 103e 0c81 963e 93b8 f93c 200e efbd
00000070: 0253 1fbb e13a 433e 83c3 963e cc17 4bbe
00000080: 7e07 4fbe 46eb 083e 6087 0ebe 4ef1 86be
00000090: 1927 e43d f0ab 42be 2d0f d73d e8f3 763d
000000a0: d826 5cbe da9e a8be 91d5 4c3e 19ac 45be
000000b0: 7d5e 33be 86a5 00bd 1fd1 b43d 9534 26be
000000c0: e075 10bc 28c1 223e c1d2 a8be 9905 15bc
000000d0: 62a8 923e 7c71 64be 304f 303e adb8 3ebe
000000e0: 51f5 60bd 6385 55be ccc4 85be e7b7 15be
000000f0: 598f 4e3c 2ef0 663e 2440 a3bb d3e3 d53d
00000100: 8c99 283e 25e9 01bd 0ba2 a4be 3c89 9f3e
00000110: 2d7a 35be 845d 1d3e 3a5a 7b3d 82a4 013e
00000120: 5617 02be f622 10be 6d20 e53c a208 cbbd
00000130: acbc 50be c353 ad3e 6d25 67be 8f09 5fbe
00000140: cb08 81be f5f6 2c3e 33e8 67be 7ffb c9bd
00000150: a199 48be e7db 5b3e 302f babc a077 1a3d
00000160: 04fb 90be e267 fbbc 8cad 88be 27e6 5a3d
00000170: d071 37be 99e7 703e c2b7 3fbe ff39 99bd
00000180: 05ae 8fbe 4dd0 5a3e e2d5 33be cd77 03be
00000190: 0740 a03e d781 973d ed0e 503e ee18 28be
000001a0: 4e2b aabd 3228 6fbe 4364 96be c183 993e
000001b0: 6950 563d f3ed 5e3e 28f6 91be 93db 913c
000001c0: 8f47 00be cbb1 313e 9ed2 85be 28ed 433e
000001d0: e99c 9a3e 4c0b 6c3e 0ad3 72be 49e9 473e
000001e0: fccd 3f3d 8c01 963e e9d4 5e3e 9221 f33d
000001f0: ec6b 093d ec3b 4e3e f9b6 973e 9d37 673e
00000200: ed7d 5e3e a03a 4abe bde4 4dbe d672 993c
00000210: 4ed0 603e 5ba6 0f3e be7a b6bd cb57 263c
00000220: 4c79 3abe 6d4b 92be f5c5 563e 031e aebd
00000230: 150a 26bd 89f0 9abe 2fc1 72be dbb7 d4bd
00000240: ee12 273e f86f 27bc 1caa 17bd 4060 0b3e
00000250: dee9 12be fc0b 793e a0b7 42be dddc 02bc
00000260: 9400 86be 8fc6 863e f6f4 d53d 872e 813d
00000270: d9d1 b83d 9bc0 373e 2e6d 773e 3df8 85be
00000280: fe01 0e3e dcca 1c3d 4878 893e ee1b 9ebe
00000290: 95b9 a5be 8040 9a3e c506 943e ecd8 dbbd
000002a0: bebd 76be e88a 6f3e 6d14 6f3e 21cc 2f3e
000002b0: 2e10 9c3d e428 2a3b 794e 2dbd 17ea 94be
000002c0: 470d 83bd 6019 473e fa37 63be 25a7 1bbd
000002d0: 20b5 863e c188 8dbd a501 1c3e a039 1d3d
000002e0: 0270 0abe f7d0 babb 34b8 c3be f147 20be
000002f0: 89a4 9d3e bc09 34be 4338 13be d49f 6c3e
00000300: 3369 5f3e 1738 6b3e d3fb 21be d1dc 8ebe
00000310: d025 a6bd dc86 353e d61c 35be f50b 87be
00000320: 4fa3 dfbd 1a79 173c 2764 80bb 93ee 063e
00000330: 6ffd 333e f6cf 6bbd a183 6d3e 2468 4fbd
00000340: 83e4 b83e 7fc0 8fbe 2b60 353e a9ad e93e
00000350: be30 013e cb3b 3a3e e087 9b3d 26a6 193d
00000360: 772b 10be eefe bc3c c821 8cbe c6f2 9dbe
00000370: 48b1 bfbd c023 33be 3f0c b13e 8994 82be
00000380: a59d 9c3e 053a 65bd 242d 393e a955 84be
00000390: d714 1fbe a3f4 b63e 4104 853e 9a1b 26be
000003a0: 6a3a 803c 1765 ddbb f379 b4be 05de 793e
000003b0: 050c a6be 54bc 40be 4762 fe3d a0c6 903e
000003c0: bef7 b63e 4800 8dbc 462a f2bd 4e0c 963e
000003d0: e28d 5fbe 84a4 fcbb 5f17 e43d 9673 8b3e
000003e0: 3584 88be 59ca adbd 546b 18bd c198 80bd
000003f0: 8d0a c63d b6b4 1e3e 60dd 263e 4a9d 25be
