U-net/weight/backup/encoder_weights_50.pth (torch, 134231 bytes, 6 tensors)

conv1.weight f4 [64, 3, 3, 3]
00000000: e291 0c3e 66c8 433e eafb 5f3e f0db 1a3e
00000010: e211 0c3e be03 7b3e 78f9 123e 7772 f13d
00000020: dc10 8c3e 4845 d9bd 27c9 26be 6a48 f6bd
00000030: c30d cf3d b360 06be 7d05 1e3c 2189 08bd
00000040: 5d61 483d d40f e63d 1f2e a93d 482c d03d
00000050: 1cad ebbd ce3b 4f3c 6434 373e 652e 8cbc
00000060: 6b61 eb3d 034c dd3d dda7 d5bc 7e36 d5bc
00000070: d651 0b3e 3dce 693e 7df5 523e cd26 1a3e
00000080: 0416 6f3e fa29 763e 5998 ec3b 9f5c c13d
00000090: ce07 253e 5141 10bd 40ec 1ebe 8958 6cbc
000000a0: 5e83 de3d b749 cfbd 32fb 42bd e188 013e
000000b0: 8675 783d cd82 9bbd 3318 723c 3794 bdbb
000000c0: 455e b63d 3660 1fbe 288b 1abe e678 343c
000000d0: 30bf 0ebe 5b00 bf3d 523e 2d3e d51f e93d
000000e0: 43d6 3c3e 5831 643d 63cf 273e 3ab9 0e3e
000000f0: 2499 d1bd 1bfc 593b 4741 c2bd 12b7 36be
00000100: 0382 c6bd bbdb dd3d 81fe 88bb eb5b 1c3e
00000110: 237c 0fbe aa4c 8b3b 1437 063e 3bd3 623c
00000120: 6e51 87bc 0b03 da3d e136 05be 351d 233e
00000130: 7272 f6bd 60ed 9a3d d105 b2bd 39bc a0bd
00000140: 84cc 783d 8862 8a3c 7a96 203e ba2b 6a3d
00000150: c186 82bd 346c 7c3d 3fb9 0f3e 2cbc d03d
00000160: 7643 a039 c8dc 753e 4034 e83b 5510 06be
00000170: ae8d d8bd f587 6b3d 3561 753d 9105 0dbe
00000180: a288 12bd 7c12 d33d 79e1 033e 9a09 603e
00000190: 3d6a 6f3d 15f5 d8bd d2b9 f1bc 156f 0abe
000001a0: 730e 14be aaaf 213d ef1d 52bb 2a36 c1bc
000001b0: e8d2 f3bd f77b 68be 6066 9a3d 0428 0cbd
000001c0: 6a71 1ebd 72d7 01be 02f2 243e 4d20 503d
000001d0: ca62 11be 23ab 90bc 09b9 8a3d 9659 41be
000001e0: d268 1f3e 039c 80bd a9f1 84bd 59ae 963d
000001f0: df8a f13b 80f4 1f3e f427 97bd 9b02 cbbd
00000200: ec09 afbd 0e3e 953c 5304 dabd c66e 093e
00000210: 63e4 5d3d fed7 043c 44a4 04be 16c5 0e3d
00000220: 7de7 9f3d 7908 b3bd 8737 09be dca3 31bd
00000230: e941 cdbd b93a 953d eee0 60be 8de6 8ebd
00000240: 7d12 e0bd 0aa2 22be 3969 31be e2b3 283d
00000250: c90f 173e 0ed9 2a3e cf04 943c c4e5 f33d
00000260: 3307 2cbe 733a 2d3e 7f62 3a3e 5646 9abd
00000270: d5b3 2d3e 734f a93d 3f22 84bd 70c2 ef3c
00000280: e344 3ebd b41d d33d c74b ac3b 9727 b4bd
00000290: 2ebe 2ebe 94df 903d 10a6 003e 9c38 033d
000002a0: 6da2 c73d 4d0a 14be 792b a83c 5eb8 e7bd
000002b0: 5c97 1c3e a851 62bd 04ca 583e f3dd 01bd
000002c0: a552 3abe aae2 18be 803a da3d 29f3 553d
000002d0: 30c3 553d 9871 05be 8d1a f9bd 94e2 6b3c
000002e0: 34b4 96bd e13c 463e e3e6 a5bb 5631 163e
000002f0: c475 9fbd 4a15 823d fdac 86bd e267 1f3e
00000300: dadb fdbd c18c d13d 7768 26bb a1fc 543e
00000310: 8759 c13d 91e5 2cbe 4093 083e 21a4 46be
00000320: 3ce7 43be 6117 d83c ad2f ed3d 8ccf 14bd
00000330: 4301 20be cf2e d83d 168a 90bd da8d debd
00000340: 9476 153e 539c 153c 4522 643c 0d68 623d
00000350: bb1c 5d3d 6189 dbbc 64ce 30be 873d f33d
00000360: 456e ca3c 9cd8 09be 6a72 84be 1a3f 84be
00000370: 4adf 75be 6285 4abe 582b e4bd 6021 b9bd
00000380: e74d c2bd 5186 e8bc 63de 0d3e cbad 903c
00000390: a39a 043d a5ba 283d 9ea4 bbbc 753a 8a3d
000003a0: d157 c63c 9e49 39be 9d95 873b 86a6 28be
000003b0: 74ec cabd 7aa5 573c 5d76 aa3d 5be4 dcbd
000003c0: 1466 353d 1175 bfbd 6f3a 1b3e 984f 84bc
000003d0: c47d 013e 3eac 383d cc6b af3d 649a c43d
000003e0: 019d ed3d 0750 a7bd 3e6c 18be c0a3 01be
000003f0: c7ae 2d3e b043 193b 3b26 c43d 178c f7bd
0.13727525 0.19119415 0.21873441 0.15122962 0.13678697 0.24513146 0.14352977 0.117894106
0.27356613 -0.106089175 -0.16287671 -0.12025531 0.10110047 -0.13122825 0.009644863 -0.0333339
0.048920978 0.11233488 0.0826075 0.10164696 -0.11507627 0.012648536 0.17891079 -0.017111966
0.114931904 0.10805514 -0.02608102 -0.02602696 0.13605437 0.2283258 0.20601459 0.15053864
0.23348242 0.2403945 0.0072203097 0.09441494 0.16116259 -0.03521854 -0.1551981 -0.014425405
0.108649 -0.10121482 -0.04760284 0.12649871 0.060658954 -0.07593308 0.014776277 -0.005785491
0.08904699 -0.15564045 -0.15092146 0.011015153 -0.1394012 0.0932624 0.16918305 0.113830246
0.1844111 0.05571112 0.16387706 0.13937846 -0.102342874 0.0033261839 -0.09485107 -0.17843273
-0.096927665 0.10832926 -0.00418073 0.15269439 -0.14012198 0.0042510824 0.13106948 0.013844307
-0.01651832 0.10645112 -0.13009216 0.1592911 -0.120335475 0.07564807 -0.08692516 -0.078484006
0.060741916 0.016892686 0.15682402 0.057170607 -0.063733585 0.061626628 0.1403551 0.10192141
0.0003056784 0.24010003 0.007086307 -0.13092168 -0.10573898 0.057502706 0.059907157 -0.13771655
-0.035774834 0.1030626 0.1287898 0.21878663 0.058450926 -0.10593621 -0.029507551 -0.13518937
-0.14458637 0.039474167 -0.00320613 -0.023585398 -0.119054615 -0.22703539 0.07539058 -0.03421785
-0.03868238 -0.12679842 0.16107944 0.050812054 -0.14197841 -0.01765973 0.06773574 -0.1888183
0.1556733 -0.06279757 -0.064914055 0.07357473 0.007371291 0.15620613 -0.07380667 -0.09912606
-0.08546814 0.018218067 -0.10645356 0.13421163 0.054172885 0.008108137 -0.12953287 0.034855925
0.07807825 -0.087418504 -0.13400088 -0.04336916 -0.10022337 0.07286591 -0.21960804 -0.06977568
-0.10941026 -0.15882125 -0.17325296 0.041187175 0.14752115 0.16684362 0.0180687 0.11909059
-0.16799621 0.16916828 0.18201636 -0.07532947 0.16963132 0.08267107 -0.064518444 0.02926752
-0.046452414 0.103084 0.005258057 -0.08796614 -0.17064735 0.07073894 0.12563348 0.03203641
0.09747777 -0.14457054 0.020528542 -0.11314462 0.15292114 -0.055253655 0.21170813 -0.031705808
-0.18195589 -0.14930215 0.10655689 0.05223385 0.0521881 -0.13031614 -0.12163267 0.014397282
-0.0735859 0.19359161 -0.005062924 0.14667258 -0.07786134 0.06351717 -0.06575964 0.15566972
-0.12395449 0.10231925 -0.0025391856 0.20799495 0.09440904 -0.16884448 0.13337421 -0.19398548
-0.19131178 0.026378335 0.11581359 -0.036330745 -0.15625481 0.10555803 -0.07057588 -0.108669
0.14596015 0.009131509 0.013924186 0.05527501 0.053982478 -0.026798906 -0.17266232 0.1187697
0.024710784 -0.13461536 -0.2586854 -0.25829393 -0.2401096 -0.19777444 -0.1114108 -0.09039569
-0.09487515 -0.02838436 0.13854365 0.017660996 0.032374036 0.041193623 -0.022905644 0.06749431
0.024211796 -0.18094489 0.0041377083 -0.16469774 -0.09908381 0.013162011 0.08323357 -0.10785743
0.044286802 -0.093485005 0.1515901 -0.016151235 0.12645632 0.045086138 0.085654825 0.0959976
0.11602212 -0.08169561 -0.14885041 -0.12660122 0.16961204 0.0023386292 0.095776044 -0.12087267

conv1.bias f4 [64]
00000000: 2b90 d23d b42b 30be c413 aabd de9e 86bd
00000010: 2966 243e 050e 2dbe cde8 d93b 7ba8 f43d
00000020: ed7c ecbd bbdf 31be cef7 1dbd 3818 cebc
00000030: b97f 413d 88ce 223e c1c0 e3bd ebac d3bd
00000040: 11ed 97bd a30f 6ebc a923 47be 6757 b33d
00000050: 0d1f 85be 9779 1cbe ca76 f43d d35e 113e
00000060: 5f56 703e 9d24 323e bbe2 f03d cf55 253e
00000070: e1ca 17be e6fb 68bd 26eb 1b3e 4d11 ecbb
00000080: 7d30 fbbd c43a 5ebd 6f06 b63d c6b6 14be
00000090: 74c0 13be 604e b63d 0b06 cf3c 29bb 03be
000000a0: 7b43 35bc 590f 57bc 21d0 b4bd b8ed 0e3c
000000b0: be08 5ebe 4154 ad3d a112 363c 49e0 f7bd
000000c0: b08d 273d 7523 65bc 3364 123e e402 093e
000000d0: fc64 a8bb fa65 6d3e 3e67 793c dbcd d1bc
000000e0: bc5c ee3c b002 b0bc b932 c03d ccb5 b73d
000000f0: 72cc 5cbd a425 42be c88c 0bbc 2b67 87bd
0.10281404 -0.17204171 -0.08304551 -0.0657327 0.16054596 -0.1689988 0.0066500665 0.119461976
-0.11547265 -0.17370503 -0.038566403 -0.025158033 0.047240946 0.15899098 -0.11120749 -0.10335716
-0.07418264 -0.014530095 -0.19447197 0.08756905 -0.26000252 -0.15280758 0.1193672 0.14196329
0.23470448 0.1739678 0.117619954 0.16146015 -0.14823486 -0.056880854 0.15226421 -0.007204211
-0.12265108 -0.054255262 0.08887946 -0.14522848 -0.14428884 0.089016676 0.025271436 -0.12864365
-0.011063452 -0.013126218 -0.0882876 0.008723669 -0.21683022 0.08463336 0.01111284 -0.12103326
0.040906608 -0.013985504 0.14296035 0.13380009 -0.0051389914 0.23183432 0.015222369 -0.025610855
0.029096954 -0.021485656 0.093846746 0.08970222 -0.05390591 -0.18959671 -0.008517452 -0.066114746

conv2.weight f4 [32, 64, 3, 3]
00000000: ea1b 9dbc d4f0 15bd b4d1 c13c a797 d63b
00000010: 0c26 c1bc a0b8 143d fb29 eabc 8272 cabc
00000020: 565b 483d cc0f 2b3d 7856 053d d856 1b3c
00000030: 9b9c 273d 04cb 003d 26d4 6e3d 5a08 473d
00000040: ac38 8b3c 56b9 14bc 0705 12bd ea72 37bc
00000050: 45e6 493c 33fb acbb 4a62 29bd abec 3c3c
00000060: 9519 43bd 35b7 83bc 3906 cbbc 80a0 2abd
00000070: 484b d0bc f956 fb3a 62d9 a2bd 01df 21bd
00000080: 7608 a3bb a7bf 8f3c cb70 6e3b 6d2e ad3c
00000090: 265b cc3c 0bfa 2a3d 8c32 be3c 236a 89bb
000000a0: 997b 2d3d 5d54 063d aa8b 78bc e240 043d
000000b0: 42da e43c b46b 22bd 9db4 d53c 5d28 e5bc
000000c0: 2e28 8abc acb0 76bc 7edf 92bb 3dac 57bc
000000d0: 68c3 05bc e68c 22bd 69e3 d53a 95c3 26bb
000000e0: b7b1 d9bc ba36 e03c c7cb 8bbb f905 8dbc
000000f0: dcd2 3ebd e7a0 873b eb5c 61bd 5e96 aa3c
00000100: eb8c b0bc 8b17 15bd a77b cf3c 0459 1a3d
00000110: 5cdd 7a3c e208 b9bb 54d3 31bb ed71 3aba
00000120: 4f79 d0bc ddc8 7d3b 1a40 85bc f3c5 c03c
00000130: 8d8f ea3c f5f5 303d 4cdd 24bd 4c7a d8bc
00000140: 2e59 2bbd 87c6 f03c bac1 1c3d fded cdbc
00000150: 2636 0ebd e670 113d 497c f9bc 0c4c eabc
00000160: d8a0 8fbc 391e de3c 122e 8bbd 97ad 913c
00000170: efc5 023d c111 adbd cc72 4fbd ceb1 c13c
00000180: 3ded 7abd d8a4 8dbd 488c 19bc 56bc 7a3d
00000190: f0a0 183d 057a 09bc 8186 4c3d 7487 553d
000001a0: 69d3 083d bcd5 a83d a235 083d 666b bb3d
000001b0: 9b69 43bd 442c ee3b 6730 b0b9 076c e1bc
000001c0: 5ef8 9bbb 97a9 0abd 23f7 abbd aadc 3fbd
000001d0: 8ae7 33bc fc60 00bb ec92 a53c eb6e d23c
000001e0: e043 ea38 b39a db3c ee82 0bbd 03ec b0bc
000001f0: 5ce9 0d3d f76b acbc 3c2a 2e3d 1b42 15bd
00000200: 4e93 86bc d2a6 1cbd 4a4d c73c a625 b5bc
00000210: 02d5 023c aa20 86bc a69b 48bc ed51 21bc
00000220: 07da 3cbc b907 b13c 49f9 613b 77ce 1b38
00000230: 522f 5c3c 03ce 57bb e234 183d 56e0 78bc
00000240: f795 c93c 98f1 aabc 0f07 82bc 28c0 a43c
00000250: c7ce 5a3c 80c6 853c b870 083c 2f46 b3bc
00000260: 0ae4 e53c cebe 2e3d a40d 1dbc c711 a63c
00000270: c20b 6dbd 0e6c 0bbd 4fc5 0e3c 54ee 2fbd
00000280: 37b3 c0bc 962a 103d b696 82bb 430d a9bc
00000290: 11ee 97bd dda8 30bd b4d7 47bd 2801 a3bd
000002a0: 26d9 5cbc 4886 8a3c 77d4 903b 25ed 123c
000002b0: 0fee 3fbd 4d00 bebc 7956 43bd e9a0 323c
000002c0: 82a8 2dbd e32f dabc dad2 b03c 823d 05bd
000002d0: 0136 aabd a266 afbd 7a35 a0bd 3ce0 7dbd
000002e0: 4a61 a4bd 87c3 0fbc 2be5 58bd 6f7b 463c
000002f0: ca5f e4bc 9589 24bd f8bf 28bd 8a3d 1cbd
00000300: 8923 b33c 1ec8 c43c 6415 113d a113 c1bc
00000310: 990f d2bc a161 f8bb 2359 7fbd c9a0 49bd
00000320: 0b7e 073d 8aea 34bd 5881 0abd 1859 4ebc
00000330: 184e 7abc be07 e3bc 2355 f83a 8d80 10bc
00000340: 4e08 103d 9fff e63a dafd 2b3d c242 873d
00000350: e482 ac3c 9208 48bd 147f 913c 3235 11bd
00000360: 3a5a 4b3d bf82 653d e6fa 813d dff5 463d
00000370: 4217 1c3d e559 ab3d 7afb c43c 2750 1e3c
00000380: dd1f ad3c 3b67 3abc b534 6238 a63d 4bbc
00000390: 2c0d 06bd bae0 52bc a02d 16bc 910f d6b9
000003a0: 4a80 2cbd 0726 0b3c b7eb aa3c 7eb0 88bc
000003b0: fe51 af3a 1194 d4bc d40d 80bc c3bb d93c
000003c0: 73a9 34bc 1d10 84bc f33d f5bc 6f89 b3bb
000003d0: 6f72 b43c 9862 06bd 7a9c 633c c83f 993c
000003e0: e8a5 e8bc 6a04 053b ffeb 053d 3828 593d
000003f0: b391 89bb 9346 04bd a8b9 11bc 8f9b 8bbc
-0.01917835 -0.036606625 0.023659565 0.00654884 -0.023577712 0.036308885 -0.028584471 -0.024712805
0.04891523 0.041763112 0.032553166 0.009481154 0.040920835 0.03144361 0.05830779 0.04859195
0.016994797 -0.009077391 -0.035649326 -0.011196831 0.012322967 -0.0052789687 -0.0413535 0.011531035
-0.04763182 -0.01607857 -0.02478324 -0.04165697 -0.025426522 0.00191757 -0.07951619 -0.039519314
-0.004975374 0.017547442 0.0036383148 0.021140302 0.024945807 0.041742366 0.023217462 -0.0041935607
0.0423542 0.0327953 -0.015170017 0.03228844 0.027936105 -0.039653495 0.0260871 -0.027973348
-0.016864862 -0.01505677 -0.0044822088 -0.013163623 -0.008164264 -0.039685152 0.0016318384 -0.0025446166
-0.026573999 0.027369846 -0.0042662355 -0.017214762 -0.04658781 0.004139054 -0.055020254 0.020823654
-0.02155157 -0.036399405 0.025327517 0.03768255 0.015311565 -0.005646811 -0.0027134018 -0.0007112313
-0.02544847 0.003872446 -0.016265918 0.02353189 0.028632903 0.043203313 -0.040250108 -0.026425503
-0.041833095 0.02939154 0.03827069 -0.025137896 -0.03471961 0.03550806 -0.030454772 -0.028600715
-0.017532751 0.02711402 -0.067958966 0.01778297 0.031927045 -0.08450652 -0.05064659 0.023644354
-0.061261404 -0.06916207 -0.009371825 0.061214767 0.037262857 -0.008390908 0.04993296 0.05213113
0.03340474 0.082438916 0.033254273 0.09151344 -0.047708135 0.0072684605 -0.00033605398 -0.027517332
-0.0047598323 -0.03385314 -0.08396747 -0.0468413 -0.010980496 -0.0019589057 0.02021166 0.025687655
0.00011170632 0.026807165 -0.03406041 -0.021596914 0.034646377 -0.021047575 0.042520747 -0.036439996
-0.016427662 -0.03824503 0.024328846 -0.022112679 0.007985355 -0.016372997 -0.012244141 -0.009846193
-0.011526591 0.021610128 0.003448086 3.7147165e-05 0.013439016 -0.003292919 0.037159808 -0.015190205
0.024607642 -0.020867154 -0.015872506 0.020111158 0.013354964 0.016330004 0.0083276555 -0.021884052
0.028062839 0.042662434 -0.009585772 0.020272149 -0.05787254 -0.034038596 0.008714034 -0.042951897
-0.023522956 0.035196863 -0.0039852513 -0.020636206 -0.074184544 -0.04312979 -0.048789695 -0.07959205
-0.013479507 0.016909733 0.004419859 0.0089676725 -0.04685789 -0.023193503 -0.04768989 0.010902622
-0.04239703 -0.026634162 0.021584917 -0.03252936 -0.08311082 -0.085644975 -0.078227 -0.061981425
-0.08026369 -0.008774645 -0.052952927 0.01211439 -0.027877707 -0.04017027 -0.0411987 -0.038144626
0.02186753 0.024021205 0.03542079 -0.02356893 -0.025642203 -0.0075799976 -0.062340867 -0.049225602
0.03307919 -0.044168986 -0.033814758 -0.012594484 -0.015277408 -0.027713653 0.0018946271 -0.008819711
0.03516417 0.0017623788 0.04199014 0.0660453 0.021058507 -0.0488363 0.01776079 -0.03545112
0.049646594 0.056032892 0.06346683 0.048574325 0.038108118 0.083667554 0.024045695 0.0096626645
0.021133358 -0.011377151 5.3931686e-05 -0.012404835 -0.032727405 -0.012870962 -0.009166151 -0.0004082886
-0.042114533 0.008492953 0.02086435 -0.01668572 0.0013375876 -0.02594951 -0.015631594 0.02657879
-0.011026728 -0.016120965 -0.029936766 -0.00547903 0.022027222 -0.03280887 0.013892287 0.018707171
-0.028399423 0.002029682 0.032695767 0.05301687 -0.004198277 -0.032293867 -0.008894362 -0.01704195

conv2.bias f4 [32]
00000000: 38b5 dd3b 71e1 b23b 6751 8e3b ff41 e03c
00000010: 5ded 69bd 2a8c 05bd fe5a 98bc 6407 1d3e
00000020: 4ceb 80bc 7f5e d63c a271 6e3d 54e9 b2bb
00000030: d78b 6ebd ab85 133d 3040 cc3d 36c0 313c
00000040: 20d2 8aba 4fc2 abbb 6ac3 f73b a3e4 13bd
00000050: 07ea a2ba f8fe 063d 4a8b d43c 74a7 47bd
00000060: a300 0ebc 33a2 ef3c f4fe 723d cf53 64bd
00000070: 157a bcbc 1c26 7ebc 7264 3bbd 285e 493d
0.0067659877 0.0054590036 0.0043432 0.02737522 -0.057111133 -0.032604374 -0.018598076 0.1533485
-0.015737198 0.026168106 0.058213837 -0.005459944 -0.05823883 0.036016148 0.0997318 0.010849049
-0.0010591187 -0.0052416692 0.007561137 -0.036106717 -0.0012429365 0.032958 0.025945324 -0.04874368
-0.008667144 0.029252147 0.059325173 -0.05574399 -0.023007432 -0.015512016 -0.04575009 0.04916206

conv3.weight f4 [16, 32, 5, 5]
00000000: f1b2 26bc 2d4a 23bc 9f57 2ebc e01e f1bc
00000010: a7d1 1c3b 5305 003d 0882 05bc a649 85ba
00000020: 32b9 29bc 789f cd3c b547 a73c 5823 1b3d
00000030: f65c 843b a42e c13c 4234 c7bc 4d6e ffbc
00000040: f83f 2e3c 8e5e 0cbd eaae c53c 36cc cabc
00000050: b476 9bbb 3c74 e13c 1ce5 9f3c d470 27bd
00000060: b196 01bd fae6 7ebc 7527 943c 79f7 1abd
00000070: f133 83bc 9ab5 913c a79e bc3c 42eb ed3c
00000080: 5709 8fbc fd43 7dbb ebff 523b a3ba 133c
00000090: dfd6 06bd 2a74 9abb f054 d4bc 03c2 ab3b
000000a0: f183 e73c b7ec f9bc c09d d33c 57a7 d33c
000000b0: 4f89 603c 4913 00bd 5f8e 02bd 86b1 b4bc
000000c0: 0dbf 02bc cba4 fa3c 9866 563c 842c efbb
000000d0: 81c0 b93c f7d3 9bbb bd6f d5bc 2917 3e3c
000000e0: c8fa 1bbd c498 25bd dde4 b7bc 2291 183c
000000f0: 2366 9e3b 9c75 113c d159 b3bc 8c88 4fbc
00000100: 8039 cd3c 2ea7 0dbd 4239 03bd d9cb e7bb
00000110: f410 22bd b80e 0abd 8e3c 143b cc1a 833c
00000120: ec43 1bbd 6bec 45ba 252b 8c3c a2b5 d2bc
00000130: f5bc 39bc 473a 03bb e2d7 5e3c 9063 78bc
00000140: 8a45 603c 904a 823b ae0a 9fbc b367 9dbc
00000150: acdd 1e3c ff45 203d 575c 473c c1c9 c43c
00000160: 9b06 943c ec0f 433c 1c2e 57bc ee38 3d3c
00000170: f1d5 d33c 4ce7 2a3b 21b3 adbc 585a 66bc
00000180: f4c7 01bc a154 993c 43f2 0a3b f0c2 5a3c
00000190: 87ea bebc 7fb7 ddbc 3945 413c 89fc 2a3c
000001a0: e735 06bd b218 6c3c 05d8 1bbc e8e7 3fbd
000001b0: a710 453b 3476 12bc 0615 483c 765d 09bc
000001c0: a28f 55bb 433c 1cbd ad74 34bd b250 743c
000001d0: e073 f03c 5ff0 adbc e347 03bd f658 3a3c
000001e0: 5fed cc3c f6ed 86b9 c352 0c3c 93e0 beba
000001f0: 3c8a a83b a288 a23d d25d 193d 0e10 13bc
00000200: c42c 6f3d cad5 333d 43ba 59bd a694 95bd
00000210: f552 2ebd d9fd 9abd 3460 2abc 924d a2bc
00000220: b521 87bd 1e1e 95bd 6daa 6ebd 58f2 723b
00000230: 1f44 f03c 0dd3 70bc 90a5 c5bc 6153 c53c
00000240: 75f3 8abc d5be 083c d282 1e3d 43b4 5ebb
00000250: eb9c b73b e568 1b3d 0d5d 993b 63cd e33c
00000260: a974 c5bc 1cb4 b03c 2d06 f6bb fd40 a1bc
00000270: cfc3 f5bc b117 013d 7d6c ffbc a553 5b3c
00000280: c85b 04bc ed30 343c ec7e 153c ba00 a83c
00000290: 7dcc d0bc bb6c 353c 0d2d 4f3c 4902 d1bb
000002a0: 6126 84bc 6945 5bbc a3b3 633c 5808 793c
000002b0: d1b3 bbbc 7e1b efbc e40e 84bc 6ac5 b0bd
000002c0: b110 15bd bee3 0abd 9c27 95bd 8426 36bd
000002d0: 4b80 92bc 20d5 e03c e12b 263d c615 2d3d
000002e0: c726 e9bb 3978 f3bc 53a8 133d 05ed 633c
000002f0: 9628 d0bc 9450 253c f7ad e4bd 2198 b5bd
00000300: 7627 77bd c1d4 bcbd c2d0 b2bd 54f0 2dbe
00000310: 7511 efbd 1ef1 c4bd 927d 1dbe 0b35 12be
00000320: 5eea 4abc a263 02bc 24fe d43c ab23 cd3b
00000330: 0c8b fb3b d689 c9bc 0169 b03c f264 6c3c
00000340: 13b2 a33c ed6a 19bd dad5 ed3c 5795 09bd
00000350: faf2 193c 0f9f 3b3c fd54 5cbc 6654 a33c
00000360: b47a 85bc 0aa1 19bd e522 663c 35d3 35bd
00000370: d8a3 debc 2431 e43b 95bd 17bb 4767 b3bc
00000380: 01fb f3bc 0dbd 8dbc fa4c 583c 379e 55bc
00000390: e270 c23c 929f b03b aa04 e7bc c9f2 823c
000003a0: 5fab 5abc 1fa9 47bd 70a5 83bc 0d28 623c
000003b0: 2a57 39bc f04f 953c 3d38 0b3b 0f46 3a3d
000003c0: 9485 003c e8eb d5bc cb83 ba3c 26b0 8cbc
000003d0: 73bd 173d cf5e 8c3c c6f8 6ebc e85f b8bc
000003e0: c1bd 7dbc 48ec 993c 7439 333d 61b4 dd3c
000003f0: 0a88 f03b 7d59 6b3d 53aa 3f3d 060a 32bd
-0.010174499 -0.009966415 -0.010641008 -0.029433668 0.0023928673 0.031255078 -0.008148678 -0.0010169044
-0.010359095 0.025100455 0.020419935 0.037875503 0.004039402 0.02358181 -0.02431691 -0.031180525
0.0106353685 -0.034269862 0.024131257 -0.024755578 -0.004744375 0.027521245 0.019518428 -0.040879086
-0.03163785 -0.015557999 0.01808522 -0.037833665 -0.016015979 0.01778679 0.02302487 0.029042844
-0.017460508 -0.003864526 0.0032195996 0.009016666 -0.03291976 -0.004713555 -0.025919408 0.005241634
0.028261157 -0.030508382 0.025832057 0.02583663 0.013704612 -0.03126839 -0.031874057 -0.022057306
-0.00798012 0.030596158 0.013085984 -0.007299008 0.0226748 -0.004755493 -0.026054258 0.0116022015
-0.03808096 -0.04042889 -0.022447998 0.009311946 0.004833953 0.008878138 -0.021893414 -0.012666833
0.025051832 -0.034583263 -0.032037027 -0.007073861 -0.03956695 -0.033705443 0.0022619101 0.016003989
-0.037906572 -0.00075501826 0.017110417 -0.025721375 -0.011336555 -0.002002375 0.013601275 -0.015160456
0.013688454 0.0039761737 -0.019414272 -0.019214487 0.009696405 0.039129253 0.012168012 0.024021985
0.018069556 0.011905652 -0.013133552 0.011549218 0.025858851 0.0026077805 -0.02120358 -0.014059626
-0.007921208 0.018717112 0.0021201528 0.013352141 -0.02330519 -0.027065037 0.011796289 0.010436186
-0.03276625 0.014410185 -0.009511952 -0.046852022 0.003006974 -0.008939315 0.012212044 -0.008384099
-0.0032586833 -0.038143408 -0.044056583 0.014911817 0.029352129 -0.021232782 -0.03205098 0.011373749
0.025015531 -0.00025735766 0.008564654 -0.0014562778 0.005143432 0.07936217 0.03744299 -0.008975996
0.0583923 0.043905057 -0.05315615 -0.07303743 -0.042559583 -0.07567949 -0.010398913 -0.019812379
-0.06598226 -0.07281135 -0.058268 0.0037070718 0.029329358 -0.014698756 -0.024126798 0.02408761
-0.016961792 0.008346279 0.03869898 -0.0033981956 0.005603423 0.037941832 0.004680282 0.027807897
-0.02410348 0.021570258 -0.0075080604 -0.01968431 -0.030000595 0.031516735 -0.03117966 0.013386642
-0.008078523 0.010997993 0.009124499 0.020508159 -0.025488133 0.011073287 0.012645018 -0.0063784462
-0.016131582 -0.013383248 0.013897809 0.015199743 -0.022912892 -0.029187914 -0.016120382 -0.08631404
-0.03639287 -0.033908598 -0.072829455 -0.044470325 -0.01788344 0.027445376 0.04056919 0.042257093
-0.0071152183 -0.029720413 0.0360492 0.01391149 -0.025409978 0.010090012 -0.11165994 -0.08866907
-0.060340367 -0.09220267 -0.08731224 -0.16986209 -0.116732515 -0.09616302 -0.15379933 -0.14278047
-0.012384979 -0.007958325 0.02600009 0.0062603555 0.007676488 -0.024601858 0.021534445 0.014428364
0.019982373 -0.037455488 0.029032636 -0.033589687 0.009396309 0.011451497 -0.013447997 0.019937705
-0.016293861 -0.037507094 0.014046405 -0.044390876 -0.027177736 0.006963866 -0.0023153771 -0.021899832
-0.029782774 -0.01730206 0.013201946 -0.01303821 0.023735467 0.005390116 -0.028200466 0.01598491
-0.013346522 -0.04874527 -0.016070098 0.013803494 -0.011312285 0.018226594 0.0021243237 0.04547697
0.0078443475 -0.026113465 0.022767922 -0.017173838 0.037045907 0.017135052 -0.014585679 -0.02250667
-0.015487135 0.018789425 0.043755963 0.02706355 0.007340436 0.05745839 0.046793293 -0.04346659

conv3.bias f4 [16]
00000000: e5af fd3c da0e f8bc b758 983c 95e7 ad3d
00000010: 2c29 c4bb 23f4 fc3c 633d eebc 9d7e 6dbc
00000020: c99b 24bc a160 29bd 8e9f 533d 5acb 21bc
00000030: 2129 aabc 7b14 973c e0ff 483d 38c8 49bd
0.030967662 -0.03028052 0.01859699 0.084914364 -0.0059863534 0.030878132 -0.029082006 -0.014495519
-0.010046908 -0.041351918 0.051665835 -0.009875143 -0.020771565 0.018442383 0.049072146 -0.04926321
